HW01/model.pth (torch, 11252 bytes, 5 tensors)

layers.0.weight f4 [32, 34]
000000 a5 d6 9c bd 08 cd 3d 3e 68 e6 34 bd ed cf 1a 3d
       -0.07658128 0.18535244 -0.044165045 0.03779595
000010 96 49 bc bd 04 fa 07 3d 44 1c 91 bd e4 d8 1b 3e
       -0.09193723 0.033197418 -0.07085469 0.15219456
000020 d7 92 7a bd df a8 1b 3e de 07 b1 3d 06 46 f6 bd
       -0.061175194 0.15201138 0.08644079 -0.12025075
000030 cd e1 2c 3d ae e3 32 3d 26 16 aa bb 41 d2 ff bd
       0.042207528 0.043674164 -0.0051906286 -0.124912746
000040 5b fe 55 be 13 62 71 bd 55 c9 bc bd 72 a3 26 3e
       -0.2089781 -0.05893142 -0.092180885 0.16273287
000050 3b aa 77 3d e9 66 b6 3d 55 22 17 be 47 c9 1e be
       0.06046508 0.08906347 -0.1475919 -0.15506469
000060 ff 6d 13 be 43 24 02 3d b8 92 d0 bd 44 48 c2 3e
       -0.14397429 0.031772863 -0.101842344 0.3794576
000070 c4 88 0f 3e 07 26 31 3e d7 b7 72 3e 09 d4 20 bd
       0.14017016 0.17299663 0.23702942 -0.039264712
000080 c3 be 02 bd 2e 09 1d bc b2 5b 22 bd b4 3f 99 3d
       -0.031920206 -0.009584708 -0.03963823 0.074828535
000090 7c 27 a9 bb a6 4a 33 3d 90 a8 be bd 63 b7 b4 3d
       -0.0051621776 0.043772362 -0.093094945 0.08824041
0000a0 95 97 c9 3c cf 3c 0f be f4 13 cf bd 83 86 96 3d
       0.024608413 -0.1398804 -0.10111228 0.07349875
0000b0 10 d6 87 bc 29 62 0f 3d 4c ae 1d bd e8 cf 8e bd
       -0.016581565 0.035005722 -0.0384963 -0.06973249
0000c0 df 42 01 3d b0 1f 79 bd c4 0f 03 3e 64 0b 10 be
       0.031557914 -0.060821235 0.12798983 -0.14066845
0000d0 41 e2 43 3e 63 f9 0d 3e 95 e9 7a 3d 3b 8c 07 be
       0.19129278 0.13864665 0.061257917 -0.13237087
0000e0 56 18 10 be e6 30 8e 3d 3b 91 13 3e 87 35 50 bd
       -0.14071783 0.069429204 0.1441087 -0.050832298
0000f0 8f d7 e4 bd d5 67 b2 be b6 c1 5e be df 61 b3 bc
       -0.11173927 -0.34844843 -0.21753582 -0.021897255
000100 14 3b 68 3d 45 ed 0d 3e 7f a2 a3 3c 41 34 a1 bd
       0.056696966 0.13860042 0.019974945 -0.07871295
000110 fb a2 1d be 50 63 0a be fa b4 78 bc d2 41 b9 3c
       -0.15394203 -0.13514447 -0.015179867 0.022614393
000120 ba 74 ca bd ef 3c 32 3d 06 a7 08 be 39 7d 94 bd
       -0.09885545 0.043515142 -0.13344964 -0.07250447
000130 44 83 2f bd a3 71 16 be 70 19 f4 bd 4b 32 f8 bd
       -0.042849794 -0.14691786 -0.11918914 -0.121189676
000140 d8 0a 9e 3d ad a1 40 be ae 30 a8 3d d0 b5 04 be
       0.07716912 -0.18811674 0.0821241 -0.12959981
000150 19 52 2b 3e 10 69 09 3c dc 9a 3c be 74 9c 5e 3d
       0.16730537 0.008386865 -0.18418449 0.054348424
000160 fb 98 02 3e 99 71 13 be ac 05 ac 3c 06 24 b6 bd
       0.1275367 -0.14398803 0.020998798 -0.0889359
000170 1d ed fa 3d d5 8d ac 3d 05 f0 cc 3d a0 7b 90 3d
       0.12252257 0.0842549 0.100067176 0.070548296
000180 95 43 8a bd b2 0b 4d bd 64 26 22 3d a8 4d c9 bd
       -0.067511715 -0.05005998 0.039587393 -0.09829265
000190 95 a8 ef bd d7 83 1e be 9e 9d 4e bd 55 fa a6 bd
       -0.11702076 -0.1547998 -0.050443284 -0.08153216
0001a0 5c cd 16 be 38 b2 7b 3d 20 a3 41 3c 89 7e 03 3e
       -0.14726776 0.06144926 0.011818677 0.12841238
0001b0 00 73 03 3a ff cb 12 3e e0 fc 41 bc c3 29 c6 bd
       0.000501439 0.14335631 -0.011840075 -0.09675934
0001c0 c0 33 23 bb 84 c6 82 bd de 31 fb 3d e8 55 75 3d
       -0.0024902672 -0.0638552 0.12265371 0.05989638
0001d0 79 c6 03 3e fc 79 52 bd c1 e9 b5 bd 45 2c 8f bd
       0.1286868 -0.051385865 -0.08882476 -0.069908656
0001e0 04 85 27 be 38 7a f3 bd 45 c1 0b 3e 57 a7 0a 3e
       -0.16359335 -0.11888546 0.13647945 0.13540398
0001f0 70 e6 b5 bc 00 09 06 3d f2 4f 82 3d a8 a3 8f bc
       -0.022204608 0.032723427 0.063629046 -0.017534092
000200 ae f7 fb bd 37 41 1f 3e b1 c3 12 3e 80 1d 2b bb
       -0.123031005 0.15552221 0.14332463 -0.0026110113
000210 65 c3 d9 bd 7f 14 10 3e 60 f0 7e 3c 58 43 04 be
       -0.10632972 0.14070319 0.01556024 -0.12916315
000220 c1 bb 1a 3d 94 92 3d 3e c0 bc e3 bd 13 fd 3b be
       0.037776712 0.18512946 -0.111199856 -0.18358259
000230 3f d2 23 3e 1f c5 b0 bc 1b 0b 98 3d d1 7c 56 bd
       0.15998171 -0.02157837 0.07423993 -0.052365128
000240 f2 d4 ab bd cd 5a 5a bd 38 d2 11 bc 62 44 4b bc
       -0.083902255 -0.05330925 -0.008900218 -0.01240644
000250 27 4d a3 3d 1a 2c 14 3e ac 4b 3d be 28 ee 64 3d
       0.079737 0.14469948 -0.18485898 0.055891186
000260 18 9d 81 3d 42 07 62 bd 80 72 5f bd d8 f8 d7 3d
       0.063287914 -0.055182703 -0.054552555 0.1054551
000270 5a 41 aa bd 66 98 da 3d cf 03 2e bb ac d1 71 be
       -0.08313246 0.10673599 -0.0026552563 -0.2361514
000280 5b 34 c1 3d 16 14 03 be ed de 93 bd 0b dd eb 3e
       0.09433814 -0.12800631 -0.07220254 0.4606708
000290 bc f5 32 3e de b3 5a 3e af 4e 28 3d ef 36 f2 3d
       0.17476553 0.21357676 0.041090664 0.11826884
0002a0 33 50 15 be 21 67 10 bb dc 0c cb bd 25 65 ab bd
       -0.14581375 -0.0022034126 -0.09914562 -0.08368901
0002b0 dc 68 0f 3c 11 71 7d 3d b9 b7 e0 bc 69 2c c9 3d
       0.008753028 0.061875407 -0.027431356 0.09822924
0002c0 bb c7 df bd 66 38 12 be 2c 60 f0 bc 3e e6 19 bd
       -0.109267674 -0.14279327 -0.029342733 -0.03757309
0002d0 84 64 e1 3d 87 76 cc 3c 75 1f 86 3b 47 7b ca 3c
       0.110055 0.024958862 0.0040931054 0.024716986
0002e0 a1 f2 fc bc e4 14 11 bd 16 ad ff 3d 58 b3 34 3d
       -0.030877413 -0.035420313 0.124841854 0.044116348
0002f0 c9 8b 33 3c 29 42 86 bc 6d a6 12 3e d4 8c 1f 3e
       0.01095862 -0.01638897 0.14321299 0.15581065
000300 41 ed f9 3d 65 b5 a4 bd f2 bc 78 3d 5a 61 20 be
       0.12203456 -0.08042411 0.060727067 -0.15662137
000310 b5 09 d2 3d 09 9d b7 be 29 55 cb bb 22 f9 21 be
       0.10255758 -0.35861996 -0.0062052202 -0.15817693
000320 87 03 9b bc c2 ea ff bd fa ff c1 3d 34 73 42 bd
       -0.01892258 -0.124959484 0.09472652 -0.047473148
000330 99 99 98 bd f6 7a 2d 3d e4 2a d9 bd d7 7c 88 3b
       -0.074511714 0.042353593 -0.10603884 0.0041652727
000340 7f 60 1a be 83 4d 0e 3e f4 76 d2 3d 62 33 30 be
       -0.15075873 0.13896756 0.10276595 -0.17207101
000350 c4 30 94 3d 82 30 4e bd 59 3b 4f 3c 12 b8 aa 3c
       0.07235864 -0.05033923 0.012648427 0.020839725
000360 cb 9a 2b 3e c4 c0 d0 bd 66 15 80 bd 4b d7 7d bd
       0.16758268 -0.10193017 -0.062540814 -0.061972897
000370 d9 1e 66 bd ea 07 af 3d 19 b1 01 3e 6c 2b 01 3e
       -0.056181762 0.08546431 0.12665214 0.1261422
000380 1a fd 53 bd 7f 6a 60 3d c8 12 4d 3e 35 9e 7c 3e
       -0.05175505 0.054789063 0.20026696 0.24669726
000390 31 3f a2 bd e5 67 0a be 40 76 0d bd 54 04 c9 be
       -0.07922209 -0.13516195 -0.0345366 -0.39261115
0003a0 9e 6d 33 3d 85 bd eb bc 52 97 c5 bd 28 24 fe 3d
       0.04380571 -0.028776893 -0.09648003 0.1240924
0003b0 39 b2 fe bd 67 44 de bc 3f f5 8b 3c b2 dc 14 3e
       -0.12436337 -0.027132226 0.017084716 0.14537314
0003c0 d9 af 7e bd cb f6 11 bc de 7f 0a be f4 18 0e bd
       -0.06217942 -0.008908938 -0.1352534 -0.034691766
0003d0 ff fe c3 3c f1 2d ef ba a3 63 1a be e1 78 22 3e
       0.023925303 -0.0018247945 -0.15077071 0.15866424
0003e0 15 f3 2c 3e 32 6b b9 bc 61 b6 ac bd d4 88 69 3d
       0.16889603 -0.022634123 -0.084332235 0.057015255
0003f0 3c 44 fb bd 77 82 1d be 55 6b 04 3e 7a 8d 06 be
       -0.12268874 -0.153818 0.12931569 -0.13139907

layers.0.bias f4 [32]
000000 d5 00 26 be 9f e2 70 3d 57 46 cc 3c 34 98 20 be
       -0.16211255 0.058809873 0.024935884 -0.15683061
000010 60 b8 62 bd 14 21 d9 bd 8a 92 3c 3d 12 c3 f0 3d
       -0.055351615 -0.10602012 0.046038188 0.11755957
000020 36 f5 4c bd cb 1f 5a 3d 4b 86 30 3e ca 05 82 ba
       -0.05003854 0.053252976 0.17238729 -0.0009919938
000030 d2 f9 21 be 8c 9a 62 3d e4 cc 04 be f8 17 09 3e
       -0.15817955 0.05532317 -0.12968785 0.1338805
000040 f1 c1 16 3e ff 95 dd bd b4 d0 c4 3d 44 13 c7 bd
       0.1472242 -0.10819625 0.096101195 -0.097204715
000050 f9 ea 1f 3d 50 2b 00 3e 9a f5 ee bd 16 74 d1 3d
       0.039042447 0.12516522 -0.116679385 0.1022722
000060 16 4e ad bd 0a f3 b4 3d 4f 38 5f 3c 8b cc 09 be
       -0.08462159 0.088354185 0.013624265 -0.13456933
000070 dd 0d e1 bd c5 19 ad 3d 0f 40 e9 bd 73 33 17 bd
       -0.10988972 0.08452181 -0.11389171 -0.0369143

layers.2.weight f4 [32, 32]
000000 28 04 03 3e 53 d7 7b 3c b0 ca 07 bc 40 91 67 3b
       0.12794554 0.0153711615 -0.008288071 0.0035334378
000010 f2 d0 af 3d 84 eb bd bc be 7e 36 3e f4 63 55 bc
       0.08584775 -0.023183592 0.17821786 -0.013024319
000020 83 83 f6 bd 1e ad 47 bd 70 ed 7e 3d 18 d9 ae bc
       -0.120368026 -0.04874908 0.062238157 -0.021343753
000030 c0 b4 4b 3d 81 be 56 3d 7d 7d fc bd 2f 17 9e 3d
       0.049732924 0.052427772 -0.123286225 0.07719266
000040 ed c2 13 be 9f 22 20 3e bb 40 e4 3b 14 4a 95 bc
       -0.14429827 0.15638207 0.0069657243 -0.0182238
000050 92 b2 dc 3d 5c 18 2b 3d c1 be c7 bd 79 d1 6f bd
       0.10776247 0.041771278 -0.0975318 -0.058549378
000060 9c 9d 71 bd f0 a7 59 3c d3 d1 d3 3c 57 e4 e8 3d
       -0.0589882 0.013284668 0.025856888 0.11371677
000070 9b 7e 93 bd ad e3 ba 3b f1 65 e5 3c 22 9c 20 be
       -0.072018825 0.0057034106 0.028002711 -0.1568456
000080 3c ea 92 bd cd 26 21 3e 2e be d2 bd fc 77 53 bd
       -0.07173583 0.15737458 -0.1029018 -0.051628098
000090 04 e8 29 3c 34 09 eb bc 26 c6 df bd ff 36 f9 3d
       0.010370258 -0.028690912 -0.10926466 0.12168693
0000a0 f2 23 13 be 40 23 3f 3d 83 d1 06 3d 1d 95 57 3d
       -0.14369181 0.046664476 0.03291465 0.05263244
0000b0 14 1c a7 bd 78 6d 0b bb ef f8 d7 bb a1 5b 3e 3d
       -0.08159652 -0.0021274965 -0.0065909545 0.046474103
0000c0 c0 b3 44 bd 48 8b 16 bd 17 7c e3 3d 1d 79 17 be
       -0.048022985 -0.036753923 0.11107653 -0.14792295
0000d0 77 03 ac 3d ed 45 9d 3c f9 af 36 bd 90 dc 9d 3d
       0.08399098 0.019198382 -0.044601414 0.077080846
0000e0 ac d9 3e 3d 98 47 ef bc 34 fd 62 3d d4 ec 92 3d
       0.046594307 -0.029208943 0.055417255 0.07174078
0000f0 74 40 23 3e c5 cb 09 be ac b2 9a bd 88 34 ec 3d
       0.15942556 -0.13456638 -0.0755361 0.11533457
000100 c6 ed ae bc bf f3 41 be 40 0b 42 be 60 bd e2 3c
       -0.021353614 -0.18940638 -0.18949604 0.027678192
000110 3a c2 46 3d ea 7a 90 bd 98 01 fc 3d 80 9e fa bd
       0.048525073 -0.07054694 0.123049915 -0.12237263
000120 90 76 b7 bd da 52 ac bc 58 b5 31 3e 8c c9 89 3d
       -0.08958161 -0.0210356 0.17354333 0.06727895
000130 8f e7 1c 3c 08 1b 21 3c 61 9b 32 3e 65 9b 1f 3c
       0.009576692 0.009833105 0.17442085 0.009741639
000140 d4 f2 74 bd c6 6d eb 3d 46 83 ab bd 0e 5a 07 be
       -0.05980189 0.11495547 -0.08374648 -0.13217947
000150 55 b3 19 bc 35 d8 83 3c 25 43 0b bd 93 57 3b 3c
       -0.009381135 0.016094306 -0.03399958 0.011434454
000160 53 6b 60 3d 7c b9 24 3d 80 0d d3 bd f9 a9 c8 3c
       0.054789852 0.040215954 -0.10305309 0.024495112
000170 7f f5 19 3e 76 e0 36 bd 4a 46 2c 3e d5 c9 01 3e
       0.15035056 -0.044647656 0.16823688 0.12674649
000180 53 86 dc bd 31 cf 66 3d d6 eb e6 bd d0 8c 2c bd
       -0.10767808 0.056349937 -0.11275451 -0.042126477
000190 b2 3a 5d 3b 81 c4 8e bd 1e 91 fa bc a3 93 0d 3e
       0.003375691 -0.06971074 -0.030586775 0.1382585
0001a0 1e 32 07 be 0b d6 21 be a2 38 e6 bd c4 97 31 3e
       -0.13202712 -0.15804307 -0.112412706 0.1734305
0001b0 a1 9b fd 3d 1b bf 36 bd 44 d9 11 3e 94 51 81 bd
       0.123831995 -0.044615846 0.14243037 -0.06314388
0001c0 a3 a9 12 3e 18 53 83 3d 96 b1 ad bd 23 05 14 be
       0.14322524 0.06412333 -0.084811375 -0.14455085
0001d0 77 61 f9 3d ec 46 36 be 5b 6e a0 3d b4 6f 78 3d
       0.12176793 -0.17800492 0.07833549 0.060653403
0001e0 19 fa 01 3e dc 65 12 bd 43 24 4a bd 1b 04 2b bd
       0.12693061 -0.035741672 -0.049350988 -0.041751962
0001f0 17 27 4d bd 95 98 4b 3d 7b e8 00 bd 21 b4 2a bd
       -0.050086107 0.04970606 -0.03147171 -0.04167569
000200 91 0c 9a 3d b1 ea 13 be ab f2 90 3d 4e 43 b7 3d
       0.07521928 -0.14444996 0.07077535 0.08948384
000210 bc e4 48 3d 5b b1 27 be c3 11 04 3e 21 47 56 3d
       0.049046263 -0.1637625 0.128974 0.052313928
000220 2d 86 46 3d e4 26 00 bc 6d 53 e0 3d d8 8f ac 3d
       0.048467804 -0.007821772 0.10953412 0.084258735
000230 87 e5 ff 3d 2b 0d 1a 3e a2 b4 4c bd 51 29 0e bd
       0.12494951 0.15044086 -0.049976952 -0.03470737
000240 c9 e9 15 be ef ed e5 bd d6 bf 0d bb cd 4e 7d 3d
       -0.14639963 -0.11227023 -0.0021629236 0.06184273
000250 ba 3d 2e 3e cb 82 0a be ba f7 d4 3c 15 18 d8 3d
       0.17015734 -0.13526456 0.025997031 0.10551468
000260 30 c0 2f be 46 1a a6 3d c1 58 21 3c bf 97 15 bd
       -0.17163157 0.0811048 0.009847821 -0.03652167
000270 30 aa a3 3d 0b e2 c6 bc f1 68 a9 bd f5 6d de bd
       0.07991445 -0.024277708 -0.08271969 -0.108608164
000280 d9 ba 7a bd 05 72 20 3e 6d 27 b3 3d 6b 84 d0 bd
       -0.061213348 0.15668495 0.08747754 -0.10181507
000290 7d 5b a2 3d d0 d1 12 3e a8 a2 a7 bd eb 63 7c bd
       0.07927606 0.1433785 -0.08185321 -0.061618727
0002a0 76 3f 8c bd d4 c6 0e 3e 91 24 33 be 0b 43 dd 3d
       -0.06848042 0.13943034 -0.17494418 0.10803803
0002b0 94 1c 97 3d 6c 80 af bc 18 37 6f 3d 5f 8b f4 bc
       0.07378498 -0.021423541 0.05840215 -0.029851614
0002c0 a8 76 3b 3d c8 87 6d bd cf 52 45 bc 69 2d f3 bd
       0.045767456 -0.05799082 -0.012043669 -0.11873896
0002d0 86 88 ad 3d ee 41 0b be 6b 13 b1 bc ff a7 b7 3d
       0.084733054 -0.13599369 -0.021615705 0.089675896
0002e0 ac 1b 02 be 0c 28 58 3d 2d 92 84 bd 12 4b b7 3d
       -0.12705868 0.052772567 -0.06473193 0.089498654
0002f0 4f 9d 74 3c d6 e8 f7 3d ed 0a 07 be fe e7 01 3e
       0.014930083 0.12104957 -0.13187762 0.12686154
000300 57 48 c9 bd e8 9d ee bc 74 3d 45 3d 98 ee 21 bd
       -0.09828251 -0.02912803 0.04815431 -0.03953418
000310 ca eb fe bd b8 09 46 3d 4d 0a d8 bd d0 84 ce 3c
       -0.12447317 0.048349112 -0.1054884 0.025209814
000320 c0 7c 8d bc 5d 0f 22 be 53 ac 23 be ac f3 16 bd
       -0.0172714 -0.15826173 -0.15983705 -0.036853477
000330 fd b4 a6 bd 00 16 83 bb c5 ea c2 bd e5 5d 20 be
       -0.081399895 -0.0040004253 -0.09517435 -0.15660818
000340 d2 5e c0 3d b8 b9 a0 bc 22 17 b2 3d 6a ec 71 bd
       0.093930855 -0.019619808 0.086958185 -0.059063353
000350 67 30 06 be 2c 0e 85 bd 0b ef 06 3e c1 14 0c be
       -0.13104402 -0.06496844 0.13177125 -0.13679792
000360 2a 6a fb 3d b8 b7 9b 3c 4c eb 1b bd 50 7c f9 bc
       0.122761086 0.019008502 -0.038066193 -0.030454785
000370 4b b1 d3 bd dc da c2 bd 7d b0 07 be 53 eb 0f be
       -0.1033655 -0.095144 -0.13250919 -0.14054613
000380 70 e2 d6 3c 60 8b 0d bd e6 3d ef bd d6 ef ab 3d
       0.02623102 -0.034556746 -0.11681728 0.083953544
000390 cc f9 47 3d aa d5 87 bd 40 b2 bf bb 68 1a e7 bd
       0.04882221 -0.0663255 -0.0058501065 -0.112843335
0003a0 32 68 8f 3d ec 97 35 bd 38 85 b6 bd 4d 8e bc bd
       0.070022956 -0.044334337 -0.08912128 -0.09206829
0003b0 43 a0 34 3e bd 13 08 3e cb 35 12 3e 26 71 a7 3d
       0.1763926 0.1328878 0.14278333 0.08175878
0003c0 2b 0d 25 3e 1e d5 de 3d b2 21 0b be 7f d1 23 be
       0.16118304 0.10880493 -0.13587072 -0.15997885
0003d0 57 f6 ca bd 1f 14 8f bd 1c e6 91 bd 20 41 c0 bb
       -0.09910267 -0.0698626 -0.07123968 -0.0058671385
0003e0 20 b8 25 be 83 61 af bd 2c 5a 99 bd 88 0c 66 3d
       -0.1618352 -0.08563521 -0.07487902 0.056164294
0003f0 71 07 17 3e 7a 65 13 be f1 ab ac bd a5 ca 25 3e
       0.14748932 -0.14394179 -0.08431233 0.16190584

layers.2.bias f4 [32]
000000 a3 bd ce 3c 48 b0 ec 3c 32 7f 92 bd a7 05 fa 3d
       0.02523691 0.028892651 -0.07153167 0.12208109
000010 42 5c 1b 3e 07 65 e6 3d f0 78 30 bd 32 c7 ca 3d
       0.15171912 0.11249738 -0.043084085 0.09901275
000020 33 d3 a3 bd 7b 7f 10 be 0c 19 b3 bd fe e6 c9 3d
       -0.079992674 -0.1411113 -0.08745012 0.098585114
000030 af bb 87 3d d4 47 00 be af 10 dc 3a bf 5f 2f 3d
       0.06627595 -0.125274 0.001678964 0.04281592
000040 d7 cf d3 bd 60 0d d2 bb d0 a9 20 be 98 e6 92 bc
       -0.10342377 -0.006410286 -0.15689778 -0.017932221
000050 c7 e6 be 3d ee ac c0 3d b4 4d 01 be cb b9 62 3c
       0.09321361 0.09407984 -0.12627298 0.013838242
000060 0c 52 9a bd 94 62 1a 3e 3a 27 2f be 90 4d 36 3e
       -0.075351804 0.15076667 -0.17104807 0.17803025
000070 e3 f8 e1 bd a4 06 7c bc bc 57 1d 3e 2d c7 ff 3d
       -0.110337995 -0.015382443 0.153655 0.12489162

layers.4.weight f4 [1, 32]
000000 a3 c4 b6 3d 8c 11 40 3e 2c 1f 3b 3e 3a 95 96 bd
       0.08924224 0.18756694 0.1827361 -0.073526815
000010 fa 3c cb 3c 8d d9 db bd 69 91 1f 3e e0 9c 12 bc
       0.02480935 -0.10734854 0.15582813 -0.008948535
000020 fb b7 15 be ed ca 0d be 1f 2d 56 be 3d 77 27 3e
       -0.14620964 -0.13846941 -0.2091565 0.1635408
000030 9e d8 83 3e 57 02 88 be 79 44 bc 3e cc 66 6f 3e
       0.25751203 -0.26564285 0.3677099 0.23379058
000040 ff 30 32 3e 9e 18 9c 3d 3a 32 0e be 64 83 8d 3d
       0.17401503 0.07621883 -0.13886347 0.069098264
000050 f6 89 64 3e fa 0b a4 3e f6 df 45 3d 05 21 18 3e
       0.22318253 0.32040387 0.04830929 0.14856346
000060 86 f1 02 be 93 8c 61 3e a2 12 e3 bd d1 7c 8a 3d
       -0.12787446 0.22026281 -0.11087538 0.06762088
000070 4d 2a 7f bd 0a 10 a9 3e 64 f3 d9 bc cb 73 e1 bd
       -0.0622962 0.3302005 -0.026605316 -0.11008414
