HW01/model.pth (torch, 26408 bytes, 7 tensors)

layers.0.weight f4 [32, 116]
000000 cb d7 94 3d 1c 57 13 bd 0e 25 64 3d 7d cf 9a bd
       0.07267722 -0.035971746 0.0556994 -0.075591065
000010 7b 28 87 3d f0 2a f1 3b 50 7c d8 bc df a9 92 3d
       0.06599518 0.007359855 -0.026426464 0.071613066
000020 f0 57 bd bc 60 5a 75 bc 4c 8f f5 bc ec 29 e5 bc
       -0.02311322 -0.01497516 -0.029975556 -0.027974091
000030 3f c8 89 3d 44 ba f6 3c d8 ff d8 3c 1c 31 8c bd
       0.06727647 0.030118115 0.026489183 -0.06845304
000040 63 88 b7 3d 1f e8 3b bd b5 77 1a bd 40 8a 98 3b
       0.089615606 -0.045875665 -0.037711818 0.0046551526
000050 8b 6f 0b bd 49 ae b5 bd af 05 b4 3d 11 f2 bc bd
       -0.034041923 -0.08871133 0.087901466 -0.09225858
000060 6d d2 94 bd 02 b8 67 3d c8 df da 3c 13 83 87 3d
       -0.07266698 0.056571968 0.026718035 0.06616797
000070 01 16 84 3d 3a 4e af bd 14 9a 9a bd 80 15 ce 3a
       0.064495094 -0.085598424 -0.07548919 0.001572296
000080 e0 19 18 bb 08 ca d9 3c 07 7e ac bd 82 68 b0 bd
       -0.0023208782 0.026585594 -0.08422475 -0.08613683
000090 ef 4e 8c 3d 00 4b f9 3b f7 f6 ad bd 8a c1 7c 3d
       0.06850993 0.0076078176 -0.084943704 0.06170801
0000a0 4a b4 53 3d 91 6c 75 bd 0d 94 96 3d 78 47 0c bd
       0.05168561 -0.05991799 0.07352457 -0.034247845
0000b0 68 2b 72 bc dc 51 ab bd 90 7d c2 bb d3 a6 ba 3d
       -0.014780857 -0.08365223 -0.0059353784 0.091138504
0000c0 0e 98 3e 3d 50 68 7f 3c b6 e1 a4 bd fd dc ad 3d
       0.04653173 0.015588835 -0.080508634 0.08489416
0000d0 20 f3 1e bc 68 db 9b bc 00 81 a5 3b e0 24 6e 3b
       -0.00970152 -0.01902552 0.0050507784 0.0036337897
0000e0 9a 25 2a bd f6 5e 14 3d 29 46 80 bd fe 58 06 3d
       -0.041539766 0.036223374 -0.06263382 0.032799713
0000f0 cf d9 a3 bd a4 67 4b bd 1d dc 80 3d 30 1b f8 bc
       -0.08000528 -0.049659386 0.06291983 -0.030286402
000100 a0 e5 98 3c b8 f7 f7 bc 05 07 b3 bd a0 4d 2b bb
       0.018664181 -0.030269489 -0.08741573 -0.0026138797
000110 8e 52 34 3d 05 5b a5 3d ef f2 63 bd e0 20 3c 3b
       0.044024043 0.08074001 -0.0556516 0.0028706118
000120 d1 14 b1 3d 67 8d 91 3d 67 29 99 3d 3b 98 84 3d
       0.086465485 0.071070485 0.074786 0.06474348
000130 d2 f0 06 bd 5c 4b 56 bd 10 69 bd bc 6c 70 b6 3c
       -0.032944508 -0.052317962 -0.023121387 0.022270404
000140 88 cb 5b 3c 00 b3 15 3c 54 99 ba bc ba d6 92 bd
       0.013415225 0.009136915 -0.02277819 -0.07169862
000150 db 3e 95 3d db f0 9b 3d b1 89 94 3d 60 18 35 bc
       0.07287379 0.07614299 0.07252825 -0.011053175
000160 90 8f ea bc 31 39 3d bd 1e 34 aa bd aa 47 6f 3d
       -0.028632909 -0.04619712 -0.08310722 0.058417954
000170 03 2f 7b bd ce e6 4f 3d 00 d1 30 bc de 95 30 3d
       -0.06132413 0.050757222 -0.010792017 0.043111674
000180 c9 b8 1e bd 29 ab ab 3d 0e 55 16 3d 73 7b 42 bd
       -0.038750444 0.083822556 0.03670221 -0.04748101
000190 c4 35 cd 3c 00 00 5f ba 31 e7 04 bd 6f 9f a6 3d
       0.025050052 -0.0008506775 -0.032447044 0.08135878
0001a0 d0 32 0c bd e3 c3 43 bd 8b 12 76 bd bc d2 a2 bc
       -0.034228146 -0.047794234 -0.060076278 -0.019875877
0001b0 b2 db ac bd c0 40 ef bb e6 08 a5 bd 0f 68 b6 bd
       -0.08440341 -0.00730142 -0.08058338 -0.08906566
0001c0 09 34 aa bd 00 c3 76 bd 62 35 74 3d e0 05 e3 bb
       -0.08310706 -0.06024456 0.059621222 -0.0069281906
0001d0 38 49 d1 bc 91 29 b1 3d 12 50 ac 3d 92 fa b7 3d
       -0.025547609 0.08650506 0.0841371 0.08983339
0001e0 52 e2 38 3d b2 59 8b 3d 84 ec 4b 3c b0 da 21 bb
       0.04513771 0.068042174 0.012446526 -0.0024696998
0001f0 52 80 04 bd f6 cd a3 bd 15 a1 44 bd 5c 19 04 3d
       -0.03234894 -0.07998268 -0.048005182 0.032250747
000200 73 6b ab 3d f2 d0 02 3d 42 88 5e 3d 1e 86 5b 3a
       0.08370104 0.031937547 0.054329164 0.0008374172
000210 72 fb c0 3b 9b ac 89 3d df ff 8d bd ba b8 a5 3d
       0.0058893496 0.06722375 -0.06933569 0.080918744
000220 07 8f 62 bd 25 72 84 bd bf 2d 8f 3d 2b 99 0f bd
       -0.055312183 -0.06467084 0.06991147 -0.03505818
000230 4d cc 56 bc 3b 92 c4 bc 09 22 f1 bc 3e 13 8d 3b
       -0.013110233 -0.02399551 -0.029435175 0.0043052724
000240 79 e7 c1 3b 05 50 46 bc 49 d2 0d 3d 6d 9d 98 bd
       0.0059174863 -0.012104039 0.03462437 -0.074519016
000250 46 5c 6a 3d 86 86 8f bd 8d 6f a9 bd 79 2c b6 3d
       0.057216905 -0.0700808 -0.0827323 0.08895201
000260 6d cf a4 3d 75 76 64 bc c4 db 33 bd 9a 73 9c bd
       0.08047376 -0.013944258 -0.043910757 -0.07639237
000270 d8 2a 55 bd 7a be 95 bd fd de 94 3c 1e 28 be 3c
       -0.052042812 -0.07311721 0.018172735 0.023212489
000280 1e 51 a0 3c 53 79 a1 3d 4a 36 6d bd 4d 3a 0c 3d
       0.01956993 0.07884469 -0.057913102 0.034235287
000290 64 8d 3a 3d dd f6 b6 bd 93 b2 86 3c 66 94 2b bd
       0.045544997 -0.08933804 0.016442573 -0.04188957
0002a0 e5 12 92 3d 0b 3b bf 3c bb 59 5d 3d 22 07 b3 b8
       0.0713251 0.023343584 0.05404065 -8.536714e-05
0002b0 05 bc d8 bc b6 d6 af bd e0 f5 b5 3c 98 27 a2 bd
       -0.026456842 -0.08585875 0.022211969 -0.07917708
0002c0 8e 9c 6a 3d ce af fa bc 43 9b 72 bd 7f 36 54 3d
       0.05727821 -0.030601408 -0.0592301 0.051809784
0002d0 a0 d2 1e 3c 44 02 2b bd a4 b3 65 3d f3 73 26 3c
       0.009693772 -0.041750208 0.05607952 0.01015948
0002e0 38 29 09 3d fd 74 de bc 3f db 2d 3d 9a b0 2d 3d
       0.033486575 -0.027155394 0.042445417 0.04240475
0002f0 28 7f 9d bd 16 51 11 3d e9 be 4f 3d d8 ad 2c bd
       -0.07690269 0.03547772 0.050719175 -0.042157978
000300 50 64 c8 3c 10 90 7d bc 5b bb 8c 3d 5d 87 7a 3d
       0.024461895 -0.015476242 0.06871673 0.06116425
000310 f3 29 84 3d 23 fc 90 bd 9a 6b 79 bd 7b 4a 2d 3d
       0.06453314 -0.07079341 -0.060893632 0.04230736
000320 0b 1e 91 3c 0f 1a ab 3d f7 95 24 bd 8a 66 d7 bc
       0.01771452 0.0835458 -0.04018208 -0.026294012
000330 28 65 0a bd 4f 65 35 bd 98 8a 83 3d 98 c2 7c 3c
       -0.033787876 -0.04428607 0.06422919 0.015427254
000340 b3 6a 85 3d 08 0b 5b bd 17 d3 3c 3d 93 c8 3e bd
       0.06514492 -0.053477317 0.04609975 -0.046578
000350 1f 58 68 bd 93 87 c6 3c 46 4c bb bd 50 fd c2 bd
       -0.056724664 0.024234569 -0.091454074 -0.09520972
000360 11 6b ec 3b d0 72 ac 3d 30 93 88 3d 7a e0 cb 3b
       0.0072149117 0.08420336 0.06668699 0.006221828
000370 48 a9 af 3d fb 68 80 3d 2a ce 01 3d a0 9d 92 bd
       0.0857721 0.062700234 0.031690754 -0.07158971
000380 75 87 8b 3b a1 5d f5 bc be 29 d6 bd a5 be 34 3d
       0.004258091 -0.029951872 -0.104571804 0.044127125
000390 83 bc 2b bd 14 af 74 bd 9e 0c d4 3c 9c 13 b2 bb
       -0.041927826 -0.05973728 0.025884923 -0.0054344665
0003a0 73 0c 53 bd ee 4a 09 3c 61 03 7b 3d 99 94 54 3c
       -0.051525544 0.008379681 0.06128252 0.012974882
0003b0 b5 19 23 3d 04 08 81 bd 01 6d 26 bd 0b ab 3a bd
       0.039819438 -0.06300357 -0.040631298 -0.045573276
0003c0 5d 80 82 3d 53 73 b4 bd 09 0c 34 3c 61 75 60 bd
       0.063721396 -0.08811059 0.0109891975 -0.05479944
0003d0 b1 57 2a 3c ce f4 49 3d 1f 03 0b 3d 63 1c 3b bc
       0.010396884 0.04930573 0.033938523 -0.011420342
0003e0 71 08 1f bd 47 98 24 bc 61 96 a6 3d de 86 83 bc
       -0.03882641 -0.010046071 0.08134151 -0.01605552
0003f0 c4 06 5d 3d 13 9a cd 3d 5e 46 c5 3d 56 e8 c4 3c
       0.05396153 0.10039153 0.09632562 0.024036568

layers.0.bias f4 [32]
000000 52 5e 7a 3d 52 15 b6 3d 61 3d 00 bc 6f 4c 8b bd
       0.061125107 0.08890785 -0.007827134 -0.06801688
000010 fe 01 a8 3d 6c f1 be 3c 7c c8 72 bd 97 a0 b2 bd
       0.08203505 0.023308478 -0.059273228 -0.08722036
000020 2c b3 d5 bc d8 7d 05 bc 26 30 55 bd cc 8b ed 3b
       -0.026086412 -0.008147679 -0.05204787 0.007249331
000030 7d 28 5c bc 1e 57 3e 3d f7 4a 86 3d 0c 83 4d bd
       -0.0134373875 0.0464698 0.06557267 -0.050173804
000040 74 d1 08 bd 5b 60 3f 3d 66 35 6a bd 64 82 00 3d
       -0.033402875 0.04672275 -0.05717983 0.03137435
000050 75 47 b7 3d 24 09 23 bd 52 6d 0c 3d 88 96 f7 3c
       0.08949176 -0.03980364 0.034283943 0.030223146
000060 3f 6a 1d 3d bd 6c b3 3d 2c a8 d1 bc db 5d 05 bd
       0.038431402 0.087609746 -0.025592886 -0.03256021
000070 89 3d 61 bb 2e bb 04 bd 50 51 22 bd 35 be 98 bd
       -0.0034368953 -0.03240507 -0.039628327 -0.07458154

layers.2.weight f4 [32, 32]
000000 31 fb 0b 3e 63 be 2b 3d 65 12 10 be 08 9b 8d 3c
       0.1367004 0.041929614 -0.14069517 0.017285839
000010 ab e9 04 3e 57 29 92 bd de d6 b8 3d 6f 00 05 be
       0.12979762 -0.07136791 0.09025358 -0.12988447
000020 1b 1f 8c bd b6 ea 9a 3d 79 84 13 3e 81 be 00 be
       -0.068418704 0.07564299 0.14406003 -0.12572671
000030 89 5e ea bd f3 44 2c be ad c5 27 3e 7e 47 aa 3d
       -0.114438124 -0.16823177 0.16384001 0.08314417
000040 d6 10 bd 3a e4 e3 a1 bd 29 58 08 3e 0f 1f d7 3d
       0.0014424573 -0.07904795 0.1331488 0.10503971
000050 53 36 fa bd f0 dc 0c 3d d9 6c c8 bd d2 a6 b8 3d
       -0.12217393 0.03439039 -0.09786386 0.090161934
000060 03 fc 9e bd c9 1b 25 3e 5a 18 ae 3d fc 6f 15 be
       -0.07762911 0.1612388 0.085007384 -0.145935
000070 ad 76 10 3e 06 69 14 3e 4e 37 b8 bd b9 a4 4b bd
       0.14107771 0.14493188 -0.089949235 -0.04971764
000080 fc b8 65 3d ab a0 be bd 38 76 38 3d f8 ab f6 bd
       0.056084618 -0.09307989 0.045034617 -0.12044519
000090 5b 14 9e bc 53 4d c0 bd 80 31 7a 3b b0 0b 92 bc
       -0.019296816 -0.093897484 0.0038176477 -0.017827839
0000a0 c6 0b e0 3d 72 79 74 bd c9 d4 da bd 7a 61 1e be
       0.109397456 -0.05968613 -0.10685117 -0.15466872
0000b0 bf ea 1f be b4 11 a1 bd 13 0b 22 3e 4b 8b 12 3e
       -0.15616892 -0.07864705 0.15824537 0.14310949
0000c0 7f a3 05 be d6 23 d1 3d 57 91 d9 3d 40 20 2f 3e
       -0.1305065 0.10211913 0.106234245 0.17102146
0000d0 ff de 25 3e 04 ec 67 3d e0 1d 9b bb 20 3a af bd
       0.16198348 0.056621566 -0.004733786 -0.08556008
0000e0 ad c8 8b 3b ad 66 30 3e c9 ca 1c 3e 39 a3 48 be
       0.004265866 0.17226668 0.15311731 -0.19593515
0000f0 80 05 bb bd 84 3d 39 3e 69 e7 2b 3e 0a d2 14 3d
       -0.091319084 0.18089873 0.16787495 0.03633312
000100 c6 38 0e be 06 05 55 bd 13 55 22 3e d4 d5 57 3d
       -0.13888845 -0.052006744 0.15852766 0.052694157
000110 65 34 bd bc 0d af 22 3e 97 3f 30 be 5e 7e c9 bd
       -0.023096273 0.15887089 -0.17211758 -0.09838556
000120 ba 4c d9 3d af ad 96 bd 56 e6 10 3e 8c fb 07 be
       0.106103376 -0.07357346 0.14150366 -0.13279551
000130 bd 70 00 3d 48 40 29 bd a4 b6 04 3d 14 4a 02 be
       0.031357516 -0.04132107 0.032400742 -0.12723571
000140 7e aa d5 bd cb 02 8b bd 08 eb 06 3e 85 07 d4 bc
       -0.104329094 -0.06787642 0.13175595 -0.025882492
000150 79 87 cd 3d c5 5f 0c 3e 14 22 0e 3d d2 39 f1 3d
       0.10035605 0.13708408 0.03470047 0.117786065
000160 b0 7e 0a be 9c 37 66 3d a2 f3 d1 3d 59 df a0 3c
       -0.1352489 0.056205377 0.102515474 0.01963775
000170 cb 3f bf bd 74 4e 05 be 1e cd 6d bd 54 63 08 be
       -0.093383394 -0.13018209 -0.058056943 -0.1331914
000180 40 18 b9 bc e6 5e 49 bd 38 d7 25 be 10 3f 8a 3c
       -0.022594571 -0.049162768 -0.1619538 0.016875774
000190 c8 52 7b 3d e2 19 81 bd a4 04 80 3d aa 09 a8 3d
       0.061358243 -0.06303765 0.06250885 0.08204968
0001a0 05 b2 27 be 83 a6 d5 3d d4 08 02 bd 74 56 a2 bd
       -0.16376503 0.1043215 -0.0317467 -0.07926646
0001b0 ae 21 bb bd 96 4f 1c be a2 7d b4 3d 92 91 b3 bc
       -0.09137283 -0.15264735 0.08813025 -0.02192
0001c0 73 0a 10 3c ac a7 8b 3d b8 fe bd bd 40 41 07 be
       0.008791554 0.0681909 -0.09277099 -0.13208485
0001d0 75 98 df 3a 9f dd 0b be a4 13 bc bd 65 6a 06 be
       0.0017058986 -0.1365876 -0.09183434 -0.13126524
0001e0 57 b9 ba 3d 20 17 b6 bc c6 bb 17 be 28 0f e9 bd
       0.09117382 -0.022227824 -0.14817724 -0.11379844
0001f0 96 d8 bf bd 0b 80 f7 3d 4d 26 01 3e 2e fb 21 3e
       -0.09367482 0.12084969 0.12612267 0.15818474
000200 50 5b 31 3c 68 a9 d5 bd 71 85 3d 3e 2a 7e ed 3d
       0.010824993 -0.10432702 0.18507935 0.115963295
000210 bf 06 60 3e b3 bf 31 3e d5 12 13 3e 17 1a 05 3e
       0.21877573 0.17358284 0.14362653 0.12998234
000220 8b 35 fa bd b2 45 01 be 51 07 c7 3d 27 be 09 be
       -0.12217244 -0.12624243 0.09718192 -0.13451444
000230 14 15 fe 3d 95 2b 0b 3e d9 58 28 3e 43 41 1b be
       0.12406364 0.13590844 0.16440143 -0.15161614
000240 30 83 0f 3c 86 16 37 3e 7c d4 0c 3e c8 c4 9c 3d
       0.008759305 0.17879686 0.13752931 0.076547205
000250 3e ae 41 3e c2 e2 a4 3d 58 d7 4e 3d 35 4a 9d bd
       0.18914124 0.08051063 0.050498337 -0.076801695
000260 10 51 92 bd 38 ce a1 3c cd 07 16 be c5 91 2c 3e
       -0.07144368 0.019751653 -0.14651413 0.16852482
000270 87 3f 1d be dc 3d 4b 3e a1 9f 1a 3e 40 80 dd bc
       -0.15356265 0.19847816 0.15099956 -0.027038693
000280 57 46 05 3e a9 9d cf bc 68 e8 72 bd 29 c7 b3 bd
       0.13015114 -0.025343733 -0.05930367 -0.08778221
000290 8f 78 70 bd 98 61 9b bc 45 6c 2e 3e c4 12 92 bd
       -0.058708724 -0.018967435 0.17033489 -0.071324855
0002a0 20 f8 1b bc e6 5f 32 3e 6b 85 fe 3d 15 59 d0 3d
       -0.009519607 0.17419395 0.12427791 0.10173241
0002b0 ea 12 13 3e 93 eb 24 3e 8b 5d f3 bd 67 14 2e be
       0.14362684 0.1610549 -0.11883076 -0.1699997
0002c0 66 e8 54 3d 2b 1c 2d be 92 ea 4e be 69 e4 3e bd
       0.051979445 -0.16905276 -0.20206669 -0.046604548
0002d0 72 45 f9 3d d7 8f 28 3e 19 82 31 3e d2 ff 03 be
       0.12171449 0.1646112 0.17334785 -0.12890556
0002e0 56 0a b7 3c a1 6e 0c be d6 2a 97 3d 58 71 8e 3d
       0.022343796 -0.13714077 0.07381217 0.06955212
0002f0 33 21 44 3d cd 7e 85 3d 10 41 06 bd 5a d1 7b 3d
       0.047883224 0.06518326 -0.032776892 0.06147895
000300 d5 2c d9 bd 5d be 04 3e 02 c3 b6 3c aa ed fd 3d
       -0.10604254 0.12963243 0.022309784 0.123988464
000310 ca 56 b5 bd a1 4c 02 be 20 ca 80 3c 91 fc c6 bd
       -0.08854444 -0.12724544 0.01572138 -0.09716142
000320 2a 5e fd 3d ef 83 15 be 75 f0 32 be 3c 0e 5a bd
       0.12371476 -0.1460111 -0.1747454 -0.05323623
000330 f0 f4 73 ba d5 a2 01 3e ae 88 87 bd b4 9d 18 be
       -0.0009306213 0.12659772 -0.066178665 -0.14903909
000340 03 69 cd bd 90 92 4a 3d bf 34 b5 bd b2 e3 9b 3d
       -0.10029795 0.04945618 -0.08847951 0.07611789
000350 50 d0 95 3c 56 4a f4 bd 30 40 61 bc d2 8e 23 be
       0.018287808 -0.11928241 -0.013748214 -0.1597245
000360 ee 87 fa 3d 3e 5e 9e 3d 36 da 05 be 84 6a ef bd
       0.12232958 0.07732819 -0.13071522 -0.11690238
000370 0e 37 cd bc 8e 2e c3 3d 76 95 e8 bd f0 00 35 be
       -0.025050666 0.09530364 -0.113566324 -0.17676139
000380 88 16 a7 3c c0 99 1d 3b 53 7a 2b be fa a3 bd 3d
       0.020396486 0.002404794 -0.16745882 0.09259792
000390 e6 10 69 bb 80 e1 33 be 1e 95 14 be 24 b1 37 3d
       -0.003556305 -0.1756649 -0.14510009 0.04484667
0003a0 d1 85 0f 3e 2c 66 f7 bd c9 0e b1 bd 81 79 d8 bd
       0.1401589 -0.120800346 -0.08645398 -0.1057005
0003b0 7f 6d 89 3c 98 3f 6c 3d 5a 19 66 bd f0 01 2c 3c
       0.016775845 0.057677835 -0.05617652 0.010498509
0003c0 c3 ef af bd 09 b6 d1 bd 11 e6 6d 3d b6 d3 8b bd
       -0.08590653 -0.102397986 0.058080737 -0.0682749
0003d0 3a 6c ce bd 2a ed de 3d 70 9a d0 bc 76 84 a3 3d
       -0.10079236 0.10885079 -0.025464267 0.07984249
0003e0 d3 f4 00 3e 92 ac 2c be 04 2a 1e 3d 62 46 e7 3d
       0.12593393 -0.16862705 0.038614288 0.11292721
0003f0 af 7e 0b 3e d7 76 28 3d ae 7d 2a be ec 40 16 3e
       0.13622545 0.04112896 -0.16649505 0.14673203

layers.2.bias f4 [32]
000000 cd 2e 13 bd 68 7a 84 3a b0 e5 0b be 82 cb 1a bd
       -0.035933305 0.0010107281 -0.13661838 -0.037791736
000010 5c 8f 1c 3e ce 72 d8 3d 80 b7 16 3c e8 1a 5e 3a
       0.15289062 0.10568772 0.009199023 0.0008472637
000020 d8 55 30 3e c1 e7 17 be ab 32 95 bd 32 f1 8c 3c
       0.17220247 -0.14834501 -0.07285055 0.017204855
000030 81 0c ec bc bc 53 c0 bd 0f ec c0 3d 46 ec b6 3d
       -0.028814556 -0.09390971 0.094200246 0.08931784
000040 11 f2 14 3e 39 81 80 bd 1f 68 c3 3d f7 77 ba bd
       0.14545466 -0.06274647 0.09541344 -0.09104913
000050 6b 81 18 3e 01 e2 52 3d 2d ca 9e bd b6 5b 04 3e
       0.14893119 0.051485065 -0.07753406 0.1292561
000060 96 31 33 3e 37 27 a6 bd 1e 02 34 be 8f b2 94 bd
       0.17499384 -0.081129484 -0.17578933 -0.0726062
000070 87 be 26 be 3d a4 03 3e b6 ba 85 bc 80 89 2c 3d
       -0.16283618 0.1285562 -0.016324382 0.042123318

layers.4.weight f4 [32, 32]
000000 29 98 eb bd e7 ae d4 bd 83 22 12 3e 16 22 2c 3e
       -0.115036316 -0.103849225 0.14270978 0.16809878
000010 5f 07 06 3c ae 5a 23 3e a9 98 0e be db 7c 0f be
       0.008180468 0.1595256 -0.13925423 -0.14012472
000020 f5 90 25 3e 2c 30 a1 3d c9 99 64 3c 8e f7 cf 3c
       0.16168578 0.07870516 0.013952681 0.025386598
000030 d9 91 08 be bb a7 c9 bd 20 26 15 3e 90 79 75 bc
       -0.13336886 -0.09846445 0.14565325 -0.014982596
000040 d6 de 5b bd 27 19 1c 3e d1 58 b7 bb 26 ea 8f 3d
       -0.05367931 0.1524397 -0.0055953045 0.07027082
000050 7c ce 37 bd c1 72 1c 3e 1b c5 be 3d e5 10 ba bd
       -0.044874653 0.1527815 0.09314939 -0.090852536
000060 76 74 1d 3e a8 e2 0f bc 1d 65 23 be 6d 21 2c 3e
       0.15376458 -0.008782066 -0.1595654 0.16809626
000070 b5 fc 44 3c d5 06 84 bc 5a 43 d1 3d c6 53 bf bd
       0.012023141 -0.016116539 0.102179244 -0.093421504
000080 4a b3 e1 bd 67 e0 16 3e d8 d1 2f be 71 aa cd bd
       -0.11020525 0.1473404 -0.17169893 -0.10042275
000090 6d 7a f5 3c 4c 98 10 3e 71 88 2c be fd 6a d4 bd
       0.029965604 0.14120597 -0.16848923 -0.10371969
0000a0 61 1b 51 3d dd 97 cd 3d 34 e2 21 3e 1b 54 ea bd
       0.0510515 0.10038731 0.15808946 -0.11441823
0000b0 86 de 22 bd f2 6f 15 bd 7b 18 1c be 8e 80 ee 3d
       -0.039762996 -0.036483712 -0.15243714 0.116456136
0000c0 28 10 81 ba a7 f9 ce 3d 27 de c5 bd 14 4f b9 3d
       -0.0009846734 0.10106211 -0.09661513 0.09048286
0000d0 b6 86 4a bd 3e ac 1e bd 39 46 2f bd cd a8 3b bd
       -0.049444877 -0.03873848 -0.04279158 -0.045815278
0000e0 34 34 0c bd 9a 0a 19 be 82 a0 0a be 9f fe 61 bc
       -0.034229472 -0.1494545 -0.13537791 -0.013793617
0000f0 ac d9 27 be de 96 fe 3d 7a a2 bc 3d c9 48 d3 3c
       -0.16391629 0.124311194 0.092106774 0.025791543
000100 40 c0 06 be 4e 73 e6 3d 73 c5 0d 3e 80 6c e5 3b
       -0.13159275 0.112524614 0.13844852 0.0070014596
000110 18 82 c8 bd 9a 0c ff 3b 97 ff 60 bc 1a de c2 3d
       -0.097904384 0.0077834846 -0.013732812 0.09515019
000120 b3 2e 8e 3d 64 c3 11 bc 7c 41 d2 bc 77 24 f0 bd
       0.06942501 -0.008896682 -0.025665991 -0.11725705
000130 3e d5 a3 bd 2e 9c b5 3d 95 10 bd 3d b0 42 30 3d
       -0.07999657 0.088676795 0.092316784 0.04303235
000140 9e bf 54 3d 91 6b 54 3d 9b dd 2a 3d 2a 2a ae bd
       0.051940553 0.051860396 0.041715246 -0.08504136
000150 0f 94 c7 3c 06 d8 e1 3d 9a 0c f0 3d 67 8d 21 3e
       0.024362592 0.11027531 0.117211536 0.15776597
000160 8c 79 4b bd 06 6f e3 3d 92 f1 ca 3d a1 3d 76 bd
       -0.049676463 0.111051604 0.09909357 -0.060117368
000170 ed 1f 22 3e d6 93 0e be 51 ca 06 3e 8d 2f 0a be
       0.15832491 -0.13923582 0.13163115 -0.13494702
000180 dc 0c db 3c 18 62 c4 bd 50 a7 1e 3d 54 67 fd 3d
       0.02673953 -0.095890224 0.03873378 0.12373224
000190 38 34 05 3e a1 77 a5 3d 4f 95 b5 bd b1 78 4e 3d
       0.13008201 0.08079458 -0.08866369 0.05040807
0001a0 07 5a 25 3e ac b1 cd 3d 99 df 3b be f8 d1 e5 3c
       0.16147624 0.10043654 -0.18347014 0.028054222
0001b0 5e a5 0e be b9 d4 87 bd 98 2d de 3d 52 94 d2 3d
       -0.1393027 -0.066323705 0.1084854 0.10282196
0001c0 aa b4 aa 3d 3b 43 70 bd 78 47 eb 3c 78 a9 c2 bd
       0.0833524 -0.058657866 0.028720602 -0.0950498
0001d0 ed 57 41 3e e0 c1 34 be 46 b4 3f bd 98 7e 2e be
       0.18881197 -0.17652082 -0.04680278 -0.17040479
0001e0 4b 31 de 3d f9 7b 1f 3e 41 53 2d 3c 0d 96 4e bc
       0.10849246 0.15574636 0.010578931 -0.012609017
0001f0 11 0c d3 3d f3 a7 32 be 44 b4 0a bd c1 ee f0 3d
       0.10305036 -0.1744688 -0.03386332 0.11764289
000200 7a 89 e3 3d 65 5d 82 bd 3d c0 5f 3b 86 35 e9 bd
       0.11110206 -0.0636547 0.0034141683 -0.11387162
000210 7f 89 42 3e bd f6 0c be 3f 09 0e be 06 ef e9 bc
       0.18997763 -0.13765998 -0.13870715 -0.028556358
000220 af 4b f2 3d e2 56 e0 bd 8c 26 13 be 1c da 7f 3d
       0.11830842 -0.109540716 -0.14370173 0.062463865
000230 12 f2 56 3d fe ba c0 3d 8c f9 22 3e 8e 2d a8 3d
       0.05247695 0.09410666 0.15915507 0.08211814
000240 b0 dc ed 3c 64 72 6d bd 86 2b 4d 3d f3 4e fc 3d
       0.029035896 -0.05797042 0.050090335 0.12319746
000250 89 08 e9 3d bc 99 d7 bd a7 84 d6 bd 4f e6 56 3b
       0.11378581 -0.105273694 -0.1047452 0.0032791083
000260 e3 20 34 3d 38 99 05 be d1 47 8a 3c 5f 9b 22 be
       0.043976676 -0.1304673 0.016879948 -0.15879582
000270 0a 57 0a be c6 19 7f bd 43 6b d8 bd 44 a1 cb bc
       -0.13509765 -0.06228044 -0.105673335 -0.02485717
000280 75 9c 8b 3d f9 22 1e 3e 5e 6a 10 be 70 83 aa 3d
       0.06816951 0.15443029 -0.14103076 0.08325851
000290 74 40 51 3e 21 bc 0b be 5f 3a fe bd 6d b9 c3 bd
       0.20434743 -0.13645984 -0.12413477 -0.095568515
0002a0 1a 5b 67 bd 9b a7 a3 3d e3 e1 a1 3d 2e 24 70 bd
       -0.056483366 0.079909526 0.079044126 -0.058628254
0002b0 0d af c1 3d 93 20 05 3e d5 3d 0f 3e a6 48 be 3d
       0.094572164 0.13000707 0.13988431 0.092912
0002c0 a9 b4 25 be f6 0b 7e bd 38 45 48 be 88 6e be bd
       -0.16182198 -0.062023126 -0.19557655 -0.09298426
0002d0 70 de c8 3d f4 09 bf ba 99 19 37 3e 95 60 05 bd
       0.098080516 -0.001457511 0.17880858 -0.03256281
0002e0 7a f7 20 3e 25 91 e1 bd 3c 9f 81 3c 1b 79 e5 3d
       0.15719405 -0.11014012 0.015823 0.1120474
0002f0 de 09 65 3d c2 ba 71 bd ed 38 31 bc 03 30 33 3d
       0.055917613 -0.059015997 -0.010816795 0.04374696
000300 d6 79 fe bd e7 00 90 bc c5 30 0f 3e a7 6b 10 3e
       -0.12425582 -0.017578555 0.13983448 0.14103566
000310 ba a2 df bd 94 a0 22 3e ee d8 f2 bd 50 bf 19 3c
       -0.109197095 0.15881568 -0.11857782 0.009383991
000320 fd 8f 0b be d7 f7 e7 bc 9f 73 0c bc 06 4c e4 3d
       -0.13629146 -0.028316421 -0.008572488 0.11147313
000330 1d d2 13 3e 44 79 f3 3d 87 22 a5 3c 3b 58 07 3e
       0.1443562 0.11888364 0.020158065 0.13217251
000340 1b 74 f6 bd 40 60 24 3e ea 7a 10 be 3f 65 e8 3d
       -0.12033864 0.16052341 -0.14109388 0.11347436
000350 fb 42 3c bd 6d 2f e6 bd c2 4c 0f 3e ac 1f ef 3d
       -0.045962315 -0.112395145 0.13994125 0.11675963
000360 de 45 1e bc 5e a4 3a 3d 9f e6 d9 bd f8 0d 28 be
       -0.009660212 0.04556691 -0.106396906 -0.16411579
000370 8c 07 d5 3d 11 9c 1e be 5f 0b 0d 3e dc d2 9b bc
       0.1040183 -0.15489222 0.13773869 -0.019021444
000380 93 0d 6f bd de 5b a3 bd 21 df 3c 3b 65 a6 4d be
       -0.058362555 -0.07976507 0.0028819519 -0.20083006
000390 78 ad 75 3e 6a 8f 51 3c c0 b7 eb 3d 43 18 08 3e
       0.23991954 0.01279054 0.11509657 0.13290505
0003a0 5f 2e 21 bc 14 60 25 3e 5b ac 63 3e 53 6e c2 bd
       -0.009837716 0.16149932 0.22233717 -0.09493699
0003b0 f6 d2 c8 3d 49 8f 49 3d 56 db 3b be 73 6a 0f 3e
       0.098058626 0.049208913 -0.18345389 0.14005451
0003c0 fa 58 21 bb 18 4f 24 3d 14 06 18 be 68 66 c6 3c
       -0.0024619685 0.040114492 -0.14846069 0.024218753
0003d0 4e 85 1c be 6a 28 15 bb bd 10 8d bd a2 b1 09 3e
       -0.15285227 -0.0022759684 -0.06887958 0.13446668
0003e0 5c 53 5d 3e c8 78 4c be a9 c5 6d bd c1 f5 4c 3b
       0.2161383 -0.1996795 -0.05804983 0.003127441
0003f0 41 d2 fe bd fb 13 20 3e 0b 7b 05 3e 56 7f 9e 3d
       -0.124424465 0.15632622 0.13035218 0.07739131

layers.4.bias f4 [32]
000000 ad 5b 26 be c0 6b da bd 67 be a9 bd 46 79 b9 3d
       -0.16245909 -0.10665083 -0.082882695 0.09056334
000010 3e d7 f7 bd b3 8b ad 3c f5 82 07 be f6 6e fe bd
       -0.12101601 0.021184778 -0.1323355 -0.12423508
000020 20 f6 2a 3e 9c 57 16 3d 10 b8 27 bc 3b 47 2f 3d
       0.16695452 0.036704645 -0.010236755 0.04279254
000030 71 f9 9d bd 72 22 28 be 97 6c 1f 3e a6 be 87 3d
       -0.07713593 -0.1641939 0.15568767 0.0662816
000040 bf 21 9d bd da 09 83 bd 28 13 1e be 44 3e ec 3d
       -0.07672452 -0.063983634 -0.15436995 0.11535314
000050 d2 89 3f be 60 40 c4 3c 03 d9 12 3e b3 2b a8 3c
       -0.18704918 0.023956478 0.14340596 0.02052865
000060 76 39 97 bd 17 33 6c 3d 5f 0e 8d bd 9f 12 0b 3e
       -0.07384007 0.05766591 -0.06887507 0.13581322
000070 12 64 96 bd 1a d6 32 3e 77 6d 05 be 23 c9 28 bd
       -0.07343306 0.17464486 -0.13030039 -0.041207444

layers.6.weight f4 [1, 32]
000000 36 eb 0d be d9 5e f8 bd 36 8b e9 bc 91 ab 55 be
       -0.13859257 -0.12127466 -0.028508764 -0.20866229
000010 fc 95 e8 3c 13 3a 5f 3e ac a0 cd bd 69 9e be 3e
       0.02839183 0.21799497 -0.10040411 0.37230232
000020 3f 6d 84 3e 9e 6e 08 bd c0 23 03 3b 6c d6 2a be
       0.25864598 -0.033308618 0.0020010322 -0.16683358
000030 22 f7 1a 3e 79 fe 1e 3d f3 70 a5 3e c1 0f 90 3d
       0.15133336 0.038816903 0.32312736 0.07034255
000040 38 8c 98 bd 6c 63 1a 3e 5d da 0f be 05 35 47 be
       -0.074486196 0.15076989 -0.14048143 -0.19453819
000050 70 42 6f be 92 27 57 bd 26 e5 18 3c bc 2f f8 bd
       -0.23365188 -0.05252797 0.009331977 -0.121184796
000060 88 71 65 bd e0 c5 ac 3e ec 09 2f 3d 95 d6 31 bd
       -0.056016475 0.33744717 0.04273407 -0.043417532
000070 75 dc b5 3e b5 54 12 3e ac 3c 03 be 87 60 a9 be
       0.35519758 0.14290126 -0.12816113 -0.33081457
